tmp_models/ids_example.tflite (tflite, 4552 bytes, 2 tensors)

tfl.pseudo_qconst3 i1 [1, 30] scale=0.06379181 zero_point=0
0	0x7f	8.10156
1	0xd7	-2.6154642
2	0xfe	-0.12758362
3	0xdd	-2.2327135
4	0x05	0.31895906
5	0xf7	-0.5741263
6	0x2a	2.679256
7	0x03	0.19137543
8	0x05	0.31895906
9	0x31	3.1257987
10	0xfe	-0.12758362
11	0xfa	-0.38275087
12	0x0d	0.82929355
13	0x00	0.0
14	0xda	-2.424089
15	0x1d	1.8499625
16	0xff	-0.06379181
17	0xf6	-0.6379181
18	0x00	0.0
19	0x29	2.6154642
20	0xf0	-1.020669
21	0xed	-1.2120445
22	0x00	0.0
23	0xfe	-0.12758362
24	0xf1	-0.9568772
25	0x1f	1.9775462
26	0xf7	-0.5741263
27	0xeb	-1.339628
28	0x18	1.5310035
29	0xea	-1.4034199

tfl.pseudo_qconst5 i1 [30, 30]
0	0x10	16
1	0x0b	11
2	0xb4	-76
3	0x89	-119
4	0x07	7
5	0x02	2
6	0xfd	-3
7	0xfa	-6
8	0xbf	-65
9	0x22	34
10	0x04	4
11	0x81	-127
12	0xfe	-2
13	0xfb	-5
14	0x0b	11
15	0x09	9
16	0x04	4
17	0x00	0
18	0x02	2
19	0x20	32
20	0xfe	-2
21	0xfd	-3
22	0xff	-1
23	0x01	1
24	0xff	-1
25	0xf9	-7
26	0x09	9
27	0x00	0
28	0xf9	-7
29	0x01	1
30	0x0e	14
31	0xd7	-41
32	0xf6	-10
33	0x0d	13
34	0xdf	-33
35	0x03	3
36	0x78	120
37	0x01	1
38	0x0e	14
39	0x19	25
40	0xec	-20
41	0x19	25
42	0xff	-1
43	0xfb	-5
44	0x06	6
45	0x06	6
46	0x04	4
47	0x0c	12
48	0x31	49
49	0x4d	77
50	0x15	21
51	0x1a	26
52	0x07	7
53	0xde	-34
54	0xec	-20
55	0x06	6
56	0x0c	12
57	0xe8	-24
58	0xee	-18
59	0x81	-127
60	0xd9	-39
61	0x14	20
62	0xf5	-11
63	0xe5	-27
64	0xee	-18
65	0x04	4
66	0x90	-112
67	0xec	-20
68	0x08	8
69	0x00	0
70	0xf8	-8
71	0x7f	127
72	0xdd	-35
73	0xfe	-2
74	0xde	-34
75	0xdf	-33
76	0xc2	-62
77	0xe2	-30
78	0x02	2
79	0xf8	-8
80	0xef	-17
81	0xe1	-31
82	0xfe	-2
83	0x08	8
84	0x07	7
85	0x0c	12
86	0x14	20
87	0xd0	-48
88	0xf7	-9
89	0x06	6
90	0x70	112
91	0xdc	-36
92	0xd8	-40
93	0x14	20
94	0x19	25
95	0xfc	-4
96	0x7f	127
97	0x06	6
98	0xfb	-5
99	0xf0	-16
100	0xe0	-32
101	0xf5	-11
102	0x11	17
103	0xd9	-39
104	0x00	0
105	0x08	8
106	0x16	22
107	0x17	23
108	0x34	52
109	0x06	6
110	0x23	35
111	0xb7	-73
112	0x0a	10
113	0x09	9
114	0x07	7
115	0xf8	-8
116	0x0a	10
117	0xfa	-6
118	0xf2	-14
119	0xfa	-6
120	0x1a	26
121	0x05	5
122	0xfc	-4
123	0x09	9
124	0xf7	-9
125	0xf2	-14
126	0x81	-127
127	0xda	-38
128	0xde	-34
129	0xcb	-53
130	0x03	3
131	0xb1	-79
132	0xe5	-27
133	0x52	82
134	0xff	-1
135	0xfa	-6
136	0xdc	-36
137	0x00	0
138	0x0e	14
139	0xe4	-28
140	0xfa	-6
141	0xf0	-16
142	0x05	5
143	0x12	18
144	0xf8	-8
145	0x0d	13
146	0x18	24
147	0xf9	-7
148	0xf3	-13
149	0x0c	12
150	0x10	16
151	0xf4	-12
152	0x00	0
153	0xf4	-12
154	0x81	-127
155	0x1b	27
156	0x7e	126
157	0xf8	-8
158	0xfb	-5
159	0x1e	30
160	0xe8	-24
161	0xe8	-24
162	0x11	17
163	0xe4	-28
164	0xfe	-2
165	0x13	19
166	0x29	41
167	0x01	1
168	0xe9	-23
169	0x5c	92
170	0x0c	12
171	0x19	25
172	0x01	1
173	0x02	2
174	0xfe	-2
175	0x0b	11
176	0xd3	-45
177	0x2f	47
178	0xe8	-24
179	0x1b	27
180	0x25	37
181	0xfc	-4
182	0xf1	-15
183	0xb5	-75
184	0x02	2
185	0xfb	-5
186	0xc0	-64
187	0xe2	-30
188	0x83	-125
189	0xee	-18
190	0xff	-1
191	0x81	-127
192	0xf4	-12
193	0x29	41
194	0x0d	13
195	0x06	6
196	0x30	48
197	0xf3	-13
198	0xd2	-46
199	0xe7	-25
200	0xf8	-8
201	0xe1	-31
202	0x03	3
203	0x02	2
204	0x02	2
205	0x04	4
206	0xff	-1
207	0x07	7
208	0xf8	-8
209	0xf3	-13
210	0x19	25
211	0xff	-1
212	0x03	3
213	0x0b	11
214	0x03	3
215	0xf0	-16
216	0x81	-127
217	0xe8	-24
218	0xe1	-31
219	0xd2	-46
220	0x09	9
221	0xaf	-81
222	0xea	-22
223	0x52	82
224	0xfc	-4
225	0xff	-1
226	0xce	-50
227	0x05	5
228	0x12	18
229	0xdd	-35
230	0xfa	-6
231	0xf5	-11
232	0x00	0
233	0x1b	27
234	0xf4	-12
235	0xfb	-5
236	0x0a	10
237	0xf7	-9
238	0xf0	-16
239	0x03	3
240	0x0c	12
241	0x09	9
242	0xf6	-10
243	0xcc	-52
244	0xf7	-9
245	0x00	0
246	0x81	-127
247	0xe9	-23
248	0xdd	-35
249	0xca	-54
250	0x00	0
251	0x8e	-114
252	0xe5	-27
253	0x56	86
254	0xfc	-4
255	0x06	6
